output/model.pt (torch, 487063 bytes, 6 tensors)

cnn_layers.0.weight f4 [16, 3, 5, 5]
0	0xbd063f58	-0.032775253
1	0xbdd130b1	-0.10214365
2	0xba377416	-0.0006998194
3	0xbd854e94	-0.06509128
4	0x3c80d010	0.015724212
5	0x3d7260e5	0.059174437
6	0x3d639f4e	0.055571847
7	0x3c6dae7d	0.014506933
8	0x3cd0ec5d	0.025503332
9	0x3d1ebb3d	0.038752783
10	0xbd3e7a78	-0.046503514
11	0xbcf9cbb3	-0.03049264
12	0x3dd90a2a	0.10597642
13	0x3d3e9949	0.046532903
14	0xbd651ff9	-0.055938695
15	0xba935752	-0.0011241233
16	0x3dbce1df	0.09222769
17	0xbdaaaf70	-0.08334243
18	0x3ddeb5c4	0.10874513
19	0xbdc48f33	-0.095976256
20	0xbd141bd6	-0.03615936
21	0x3d52d047	0.05146816
22	0xbc9e7582	-0.019343141
23	0x3d88683c	0.06660506
24	0xbdd92e65	-0.10604552
25	0x3d122da6	0.035688065
26	0x3d9425ef	0.07233798
27	0x3d8555b1	0.06510485
28	0x3c2035de	0.009778468
29	0x3d8b7f4a	0.06811388
30	0xbd2a39a0	-0.04155886
31	0xbdea6713	-0.11445441
32	0xbdd0e301	-0.101995476
33	0xbbbb61ef	-0.0057184617
34	0xbdd09201	-0.10184098
35	0xbdbd7ded	-0.09252534
36	0xbb9384a2	-0.004501895
37	0xbc49901e	-0.012302427
38	0x3d0ef9f7	0.034906354
39	0x3d7b266e	0.061315946
40	0x3c167ba9	0.009184756
41	0xbdc5f85e	-0.09666513
42	0xbd6a249f	-0.05716383
43	0x3d668ac5	0.056284685
44	0xbdf35ec1	-0.11883307
45	0x3dbd3f09	0.092405386
46	0x3cbf396b	0.023342809
47	0x3dcf9dc7	0.101375155
48	0x3dc9fcb5	0.09862653
49	0xbc18abca	-0.009318301
50	0xbd225e1a	-0.039640523
51	0xbc03494a	-0.008013079
52	0xbc96c323	-0.018403595
53	0xbd935c51	-0.07195342
54	0x3ce87917	0.028378053
55	0xbcf9ca73	-0.030492043
56	0x3b2d984d	0.0026488483
57	0x3cca9bd4	0.024732508
58	0xbd61b451	-0.055103604
59	0x3da9831b	0.082769595
60	0xbcdcd5a5	-0.026957342
61	0xbdb096f6	-0.086225435
62	0xbdccea0c	-0.100055784
63	0xbc1b0248	-0.009460993
64	0xbd873e07	-0.06603628
65	0xbd603a47	-0.054743078
66	0xbd3c739d	-0.046008695
67	0xbd765ca9	-0.06014696
68	0xbcb79f03	-0.02241469
69	0xbdd2605e	-0.10272287
70	0xbd0af80e	-0.03392797
71	0xbde30e06	-0.11086659
72	0x3d81c72a	0.06336816
73	0xbd110d69	-0.03541318
74	0xbd3e5cc3	-0.046475183
75	0x3c8e474e	0.017367985
76	0x3da91cb1	0.082574256
77	0x3c1ba05c	0.009498682
78	0xbd0b77ae	-0.034049682
79	0xbd85acaf	-0.065270774
80	0xbd0009d4	-0.031259373
81	0xbd013f2d	-0.03155439
82	0xbdab777f	-0.083724014
83	0xbdab1c06	-0.083549544
84	0x3dc0b6c4	0.0940986
85	0x3d39bbf8	0.045345277
86	0xbd35bacf	-0.044367608
87	0xbccf41b4	-0.025299884
88	0xbc17ea1d	-0.009272126
89	0x3db1a146	0.086733386
90	0xbd5fc497	-0.054630842
91	0xbd997d63	-0.07494619
92	0xbbcd992b	-0.0062743626
93	0xbd870064	-0.065918714
94	0xbd0bceec	-0.034132883
95	0x3d92ade2	0.07162072
96	0x3b4ce289	0.0031262955
97	0x3c916d43	0.017752295
98	0x3d60c198	0.054872125
99	0x3ce3adae	0.027792778
100	0xbda3194c	-0.07963809
101	0x3dd62765	0.10456733
102	0xbdce32da	-0.10068293
103	0x3d6bcfda	0.05757127
104	0x3dae6018	0.08514422
105	0xbad503ba	-0.0016251721
106	0x3bad99a8	0.0052978583
107	0x3d4cdd25	0.050015587
108	0x3cbf45f5	0.023348788
109	0xbde4c5a2	-0.11170508
110	0xbc813765	-0.015773484
111	0xbd726c04	-0.059185043
112	0x3c2d635d	0.010582772
113	0x3d880d41	0.06643153
114	0x3d62535b	0.055255275
115	0x3d223180	0.039597988
116	0xbcf8db2e	-0.03037795
117	0xbd715191	-0.05891568
118	0xbd5cc0ed	-0.053894926
119	0xbdcfbb3f	-0.10143136
120	0xbddb6a4a	-0.107136324
121	0x3d0de867	0.034645464
122	0x3dbaf2fe	0.09128378
123	0xbd2799fd	-0.04091834
124	0x3ad52039	0.0016260213
125	0x3dce4710	0.10072148
126	0x3d3a2ad2	0.045450993
127	0x3d9e03af	0.07715546
128	0xbd9edfc5	-0.077575244
129	0x3d076537	0.03305551
130	0xbda67692	-0.08128084
131	0x3d9eb137	0.07748645
132	0xbc76ab03	-0.015055421
133	0x3cf2aad7	0.029622478
134	0xbdc87bfd	-0.09789274
135	0xbdd8d029	-0.105865784
136	0xbdd18293	-0.10229983
137	0x3db77a37	0.089588575
138	0x3d958616	0.073009655
139	0x3d648b3c	0.055796847
140	0x3ca9dfc8	0.02073659
141	0x3b909297	0.004412006
142	0xbd8b7d21	-0.06810976
143	0xbc2268fd	-0.0099127265
144	0xbd9223f9	-0.071357675
145	0xbda5a375	-0.080878176
146	0xbd10e85c	-0.035377845
147	0x3dc8a1de	0.09796499
148	0x3b0fd8fc	0.00219494
149	0xbc6a0422	-0.014283212
150	0x3da6669e	0.081250414
151	0x3c25e67a	0.010125751
152	0x3db68b62	0.08913304
153	0x3cc490ef	0.023994891
154	0x3c15f121	0.009151728
155	0xbde41b1b	-0.111379825
156	0xbd47d2ff	-0.048785206
157	0xbd976928	-0.07393104
158	0x3d88dd49	0.06682832
159	0xbde6857a	-0.112559274
160	0xbdc57b64	-0.096426755
161	0x3dc0e3c3	0.09418442
162	0xbe000862	-0.12503198
163	0x3d50c356	0.050967537
164	0xbcd3ef41	-0.025870921
165	0xbd1e28b8	-0.03861305
166	0xbda9a201	-0.08282853
167	0xbdc1395a	-0.09434767
168	0x3d37a351	0.044833485
169	0x3cafee77	0.021476014
170	0x3d3b3abb	0.045710307
171	0x3c9b9f00	0.018996716
172	0x3d7a193f	0.061059233
173	0xbda9e81b	-0.08296224
174	0xbda8f06a	-0.0824898
175	0xbd2e9fb2	-0.042632766
176	0x3d445ff8	0.047943085
177	0x3d4217db	0.04738603
178	0x3beab077	0.0071621495
179	0x3bbc2a0b	0.0057423166
180	0x3d9406b9	0.07227845
181	0xbb89b235	-0.004202152
182	0xbde7697d	-0.11299417
183	0xbd717c72	-0.05895657
184	0xbd1c1daa	-0.038114227
185	0xbd7adb3b	-0.06124423
186	0xbd6a740d	-0.05723958
187	0x3da51be0	0.08061957
188	0xbdb01359	-0.0859744
189	0xbb565a89	-0.0032707772
190	0xbd8ce9e3	-0.06880548
191	0x3dad3028	0.08456451
192	0x3c3b34ba	0.011426145
193	0xbdef5b5a	-0.11687346
194	0x3abeabe5	0.0014547078
195	0x3c5f424c	0.013626646
196	0x3d870baf	0.06594025
197	0xbd891c56	-0.06694858
198	0xbd688ec4	-0.056776777
199	0xbdf9a456	-0.12189548
200	0x3dafb0f1	0.08578671
201	0x3d6d69b8	0.05796215
202	0xbdf367df	-0.11885046
203	0x3c7271dc	0.014797654
204	0x3d0791db	0.033098083
205	0xbd8725cc	-0.06599006
206	0xbd224a5d	-0.0396217
207	0x3d7478bb	0.05968545
208	0xbd461cfd	-0.04836749
209	0xbe060da2	-0.13091138
210	0xbdd1e5eb	-0.102489315
211	0xbdf86ba6	-0.12129907
212	0xbdf91f56	-0.1216418
213	0x3cf31c61	0.029676618
214	0x3d1b7e15	0.037962038
215	0x3db65c4a	0.089043215
216	0xbd84cf03	-0.06484797
217	0x3c83423b	0.016022792
218	0x3d19d146	0.037553094
219	0xbded0089	-0.11572368
220	0xbdcd759b	-0.10032197
221	0x3cefe2b2	0.029282901
222	0xbdd2750e	-0.10276233
223	0xbd3e0b7c	-0.04639767
224	0x3d83f020	0.064422846
225	0xbd42dd7a	-0.047574498
226	0xbdb5c6e9	-0.0887583
227	0x3c82c71d	0.015964085
228	0xbd22858f	-0.039678153
229	0xbd82b210	-0.06381619
230	0xbdaf820e	-0.08569728
231	0x3d405ae1	0.04696167
232	0xbd9bc86c	-0.07606587
233	0xbd8136b7	-0.06309264
234	0xbdacc6e9	-0.084363766
235	0x3d114cd1	0.03547365
236	0xbac0c4a4	-0.0014707041
237	0x3d5bb190	0.053636134
238	0xbc1d01f2	-0.009582983
239	0x3da559ef	0.08073794
240	0xbc5754ae	-0.013142748
241	0x3ca3626a	0.019944388
242	0xb8e5176e	-0.00010923935
243	0x3d476d7c	0.048688397
244	0x3d87b902	0.06627084
245	0x3d4a3ad8	0.049372524
246	0xbdb31fc0	-0.0874629
247	0x3cfb9965	0.030712793
248	0x3dc1c0dd	0.09460614
249	0xbd125709	-0.035727534
250	0x3d381679	0.044943307
251	0x3dca0c99	0.09865684
252	0xbd9093ff	-0.07059478
253	0xbd85d246	-0.06534247
254	0xbca6427f	-0.02029538
255	0xbcec2fa6	-0.028831314

cnn_layers.0.bias f4 [16]
0	0x3d633b98	0.055476755
1	0x3daf63bb	0.08563944
2	0x3db4623b	0.088077985
3	0xbdc467f8	-0.09590143
4	0x3d86803d	0.06567428
5	0x3ddeda04	0.10881427
6	0x3c7e1c9a	0.015509749
7	0x3c20c91c	0.009813573
8	0x3dcae91a	0.09907742
9	0x3c5cc3e7	0.013474441
10	0xbda8d55f	-0.08243822
11	0x3dec4b84	0.11537841
12	0xbdd3e5a5	-0.103465356
13	0x3a8cc1ee	0.0010738948
14	0x3d9485f1	0.0725211
15	0x3d18b857	0.037285175

cnn_layers.3.weight f4 [3, 16, 50, 50]
0	0x3ae40d28	0.001739894
1	0x3b9834f8	0.0046449862
2	0x3b5aec95	0.0033405174
3	0x3b54942d	0.0032436952
4	0xb9617dc3	-0.00021504522
5	0xbaed9018	-0.0018124608
6	0xbb9a1c5b	-0.0047030873
7	0x3b6e09d2	0.0036321771
8	0x3b7d174c	0.0038618622
9	0xbb415b39	-0.0029503836
10	0xbba46495	-0.005016873
11	0xbba81509	-0.0051294607
12	0xba9c8d0b	-0.001194389
13	0xbb277b2f	-0.00255556
14	0x3a66a408	0.0008798246
15	0xbb03cae5	-0.0020109948
16	0x3ae5f84a	0.0017545309
17	0xba04ec4b	-0.0005070611
18	0xbb33c8e2	-0.0027432968
19	0xbb83870b	-0.004013901
20	0x39bb140a	0.0003568235
21	0xbb3d75ca	-0.002890932
22	0x395311e5	0.00020129194
23	0x3b633c62	0.0034673442
24	0xbb38fd83	-0.0028227277
25	0xba8d335d	-0.0010772754
26	0x3a03be91	0.000502565
27	0xba6e4666	-0.00090894697
28	0xbb6360cd	-0.003469515
29	0xba8d9231	-0.0010801015
30	0x3b79c316	0.0038110665
31	0xbb94bcf0	-0.0045391247
32	0xbb06cf0b	-0.0020570185
33	0x3b1332c1	0.0022460672
34	0xbb9e9e8d	-0.004840678
35	0x3b93876d	0.004502228
36	0x3b8e53d6	0.00434349
37	0x3a82b3d5	0.0009971807
38	0xbb29ea75	-0.00259271
39	0xbaea5974	-0.0017879442
40	0xbaf02110	-0.00183204
41	0xbb319c12	-0.0027101082
42	0x3b567564	0.003272378
43	0xba9d5abd	-0.0012005192
44	0xb89631ba	-7.16182e-05
45	0x3b41ebfb	0.0029590118
46	0xb9a89cb6	-0.00032160216
47	0x3b935f13	0.0044974177
48	0x3b614c15	0.0034377624
49	0x3a26097d	0.00063338113
50	0x3ba0e480	0.004910052
51	0xbb376da4	-0.0027988935
52	0x389f2e12	7.590292e-05
53	0x3aaa6e8c	0.0013002916
54	0x3b447e94	0.0029982673
55	0xbb6f5a53	-0.0036522343
56	0xbb8dce1b	-0.004327548
57	0x3acef0b4	0.0015788288
58	0x3b2eed27	0.0026691647
59	0x3b17e45f	0.0023176891
60	0xbaba7408	-0.0014225254
61	0x3a4e558b	0.0007871023
62	0x3ad37b24	0.0016134721
63	0xba844f39	-0.0010094411
64	0xb987be00	-0.00025890768
65	0xba6c8cc2	-0.000902366
66	0x3aff3002	0.0019469263
67	0x3b08acff	0.0020855067
68	0xbb900266	-0.004394817
69	0x3a9f5b43	0.0012157935
70	0x3aa20ba2	0.0012363086
71	0xb9c659bb	-0.00037832357
72	0xba71e36a	-0.0009227308
73	0xbb92df6d	-0.004482201
74	0xb982b664	-0.00024931424
75	0xbb1c7bd0	-0.002387751
76	0xbb2ef49c	-0.0026696092
77	0x3af9076f	0.0018999408
78	0x3b871b18	0.004123103
79	0x3b8cd2ef	0.004297606
80	0xba5a8006	-0.0008335117
81	0x3b8171a0	0.0039503127
82	0x3b9d5cd0	0.004802324
83	0x3b626ec5	0.0034550887
84	0x3b9477f5	0.0045309016
85	0x3b69a3ed	0.0035650686
86	0x3ac510ef	0.0015034954
87	0xbb81b5d3	-0.0039584427
88	0xba9208b9	-0.0011141516
89	0x3a683304	0.00088576996
90	0x3b1a469d	0.0023540624
91	0x3b7edae1	0.0038887786
92	0x3b8f1616	0.0043666465
93	0xb9fff55c	-0.00048820197
94	0xbb8a35c3	-0.0042178347
95	0x3b96aef9	0.004598495
96	0x3b8a9701	0.004229427
97	0x3b2e613b	0.0026608247
98	0xbb5075ce	-0.0031808498
99	0x3b1ccd2b	0.0023926
100	0x3b730231	0.0037080164
101	0x39ebbcd7	0.0004496339
102	0x3b473454	0.003039618
103	0x3b5ef25a	0.0034018965
104	0xbb8db8dc	-0.0043250155
105	0x3b33b4ac	0.0027420921
106	0x3b9bb038	0.0047512315
107	0x3b989c2a	0.004657288
108	0x3b31c3a1	0.002712466
109	0x3b3292a3	0.0027248047
110	0x3b4c38cb	0.003116178
111	0x38b81500	8.777715e-05
112	0x3a8fc35c	0.0010968256
113	0x3b0d64f6	0.002157507
114	0xbb665031	-0.0035143013
115	0x3a7f38fd	0.000973597
116	0x3b76ab4b	0.003763872
117	0x3b30fe6f	0.0027007123
118	0x3aedb1c9	0.0018134649
119	0x3b97bd8c	0.00463075
120	0x3ba2d289	0.0049689454
121	0x39e9cae8	0.000445924
122	0xbb1506eb	-0.002273972
123	0xbb44a5b2	-0.0030005989
124	0x3b70bdfc	0.0036734333
125	0xbb3f3c97	-0.0029180401
126	0xbb8df9a4	-0.004332738
127	0xbba0c489	-0.0049062413
128	0x3b9e754c	0.00483576
129	0x3ac9b980	0.0015390366
130	0x3b9afff5	0.0047302195
131	0x3b189a39	0.0023285283
132	0xbb56b22b	-0.0032760005
133	0x3b332a6a	0.0027338513
134	0xbaef974c	-0.0018279343
135	0xbb29f358	-0.0025932398
136	0x3a40f6f8	0.000736102
137	0xbade449b	-0.0016957702
138	0x39c7ec64	0.00038132363
139	0xbb4854b8	-0.0030568074
140	0xbb3eccf7	-0.0029113868
141	0x3b1e5202	0.0024157767
142	0xbb9d9656	-0.004809181
143	0x3ba40ea7	0.0050066295
144	0x3b137c50	0.0022504516
145	0x3b2afc81	0.0026090445
146	0x3b130c4b	0.0022437747
147	0xb988d306	-0.00026097166
148	0xb93a23f4	-0.00017751736
149	0x3ad1ee68	0.0016016485
150	0x3b6f85f8	0.0036548357
151	0xbb816d92	-0.0039498294
152	0x3ba46ca4	0.005017834
153	0x399e5ec2	0.00030206708
154	0x3a7fdc8a	0.0009760341
155	0x3808d700	3.262516e-05
156	0x39c7faf7	0.0003814322
157	0x3ab2452d	0.0013600938
158	0xbb9b1ea1	-0.004733876
159	0x3a8d21b6	0.0010767493
160	0x3b5516d0	0.0032514818
161	0xb9ef307b	-0.00045621753
162	0xbb325147	-0.002720909
163	0xbb315230	-0.0027057044
164	0x3b843ba6	0.004035431
165	0xbba04341	-0.00489083
166	0x3b745f18	0.0037288126
167	0xba621448	-0.0008624238
168	0xbb5b1059	-0.0033426492
169	0xb9c9412b	-0.0003838626
170	0xbaa60827	-0.0012667225
171	0xba90c642	-0.0011045414
172	0xbb97a125	-0.004627364
173	0x39a0d080	0.00030672923
174	0xba793029	-0.00095057726
175	0x3a7b99ef	0.0009597828
176	0xbb8c9e1a	-0.004291308
177	0xbaefe508	-0.001830251
178	0xbb2b44fa	-0.0026133643
179	0xbb71c4a0	-0.003689088
180	0x3afb735a	0.0019184158
181	0x3b61f351	0.0034477303
182	0x3aab16f9	0.0013053111
183	0xb8349f7c	-4.3063876e-05
184	0xbb05ed41	-0.0020435604
185	0x3ad3e0f8	0.0016165068
186	0x3b18cfd3	0.0023317232
187	0xbb995859	-0.0046797213
188	0x38f12f00	0.0001150053
189	0xbb9c90a4	-0.0047779847
190	0x3adcdba0	0.0016850121
191	0xbb5a3352	-0.003329475
192	0x3b5a48d8	0.0033307578
193	0xb890e480	-6.9090165e-05
194	0xba9ecd6c	-0.0012115664
195	0xbb185987	-0.0023246722
196	0x3a5a98f8	0.0008338834
197	0x3a891f0c	0.0010461523
198	0xbb4b8b17	-0.0031058246
199	0x3b794f4a	0.0038041645
200	0xbb3618aa	-0.0027785697
201	0x3b63fc88	0.0034787972
202	0xbb6ab9e1	-0.003581636
203	0xbb8b4594	-0.0042502377
204	0x3ac68f20	0.0015148856
205	0xbaa4a562	-0.0012561495
206	0x3b978818	0.004624378
207	0xbb96188b	-0.0045805625
208	0xbadcd8be	-0.0016849262
209	0x3a32a6b8	0.0006815004
210	0xbb5df49a	-0.0033867718
211	0x3ba35135	0.004984046
212	0x3938204f	0.00017559643
213	0x3a0ba2ed	0.0005326707
214	0x3b8d783c	0.0043173116
215	0x3b90ef00	0.0044230223
216	0x3b519ddb	0.0031984958
217	0x3b810f08	0.0039385594
218	0x3b766aac	0.0037600202
219	0x3b3838c4	0.0028110007
220	0x3a736f00	0.00092862546
221	0xba32ce70	-0.0006820923
222	0xbb000de9	-0.001953954
223	0xbb40c641	-0.0029415044
224	0x3b7e0b78	0.003876416
225	0x3b36dcac	0.0027902527
226	0x3b65c410	0.003505949
227	0xbb7b1bb0	-0.0038316064
228	0x3b7ddfa8	0.0038738046
229	0x37d4b7a5	2.5357886e-05
230	0xbb87a210	-0.0041391924
231	0xba82f7a6	-0.0009992018
232	0x39f14b4a	0.00046023197
233	0x3b69375c	0.0035585975
234	0xba90c34b	-0.001104453
235	0xbb2bc50e	-0.0026209983
236	0xbabe3896	-0.0014512714
237	0x3b3528eb	0.0027642797
238	0xba58378c	-0.0008248023
239	0xbb2c0720	-0.0026249364
240	0x399b806a	0.0002965958
241	0x3ac6ce0c	0.0015167608
242	0xba13f504	-0.0005644115
243	0xbb8c3409	-0.004278664
244	0xbad89c8f	-0.001652615
245	0x3a94c3be	0.001134984
246	0x3b8d31cd	0.004308915
247	0xbae34346	-0.0017338775
248	0xbb1a6b77	-0.002356259
249	0xbb73e91e	-0.0037217806
250	0x3b005e7c	0.0019587567
251	0xbb9c702f	-0.0047741155
252	0xb91c934f	-0.00014932196
253	0x3b20ba3b	0.0024525065
254	0x3b770030	0.003768932
255	0x3aab78f1	0.0013082308

cnn_layers.3.bias f4 [3]
0	0x3b40e44c	0.002943295
1	0xbaea3849	-0.0017869557
2	0x3b6bb1e9	0.0035964197

linear_layers.0.weight f4 [3, 3]
0	0xbec5ddaf	-0.38645694
1	0x3ee527a2	0.447568
2	0xbee310ce	-0.44348758
3	0x3e94c8b9	0.2905939
4	0xbef861ac	-0.48512018
5	0x3f036562	0.5132657
6	0xbe95283f	-0.29132268
7	0xbdb29082	-0.08718969
8	0x3eefea99	0.4685867

linear_layers.0.bias f4 [3]
0	0x3ebc28ce	0.36749882
1	0x3e5f99f8	0.21836078
2	0x3f043d83	0.5165636
